CC441_Inteligencia_Artificial/tareas y examenes/LAB's/Laboratorio4/last_brain.pth (torch, 19839 bytes, 18 tensors)

fc1.weight f4 [30, 4]
00000000: 23c5 01bf be3c 5c3e 605d a1be 621f 013e
00000010: ae0e f0be fe90 6cbe b2a7 dfbe b700 2e3e
00000020: 9af1 44be 0d08 51bd 0a99 acba b4fa d1be
00000030: 357e debe 4aa1 0ebe e7d2 7c3e 9640 d9bd
00000040: 042b cebd b1a3 c9be d8c2 203d a38a af3e
00000050: fb17 053e 2cae 01be 9c1c 5ebe 4f32 38be
00000060: 324d f0bc d392 acbd b63c 873c 3fff 3f3e
00000070: 6fe6 813e 5d81 453e 23e3 b9be da9e 31bd
00000080: 7395 9bbe 4126 8fbe c436 6cbd d1c3 e33e
00000090: fc8a 953e 71aa 423e bc29 01bf 5801 ae3e
000000a0: df4b 05bd f43b a3be 10d1 7f3e 81e5 babe
000000b0: e22d 8cbc 9873 e0bd 0e11 213e 5ccb d8bd
000000c0: 10c7 dabe 6142 20be 70d3 8e3e 0493 debe
000000d0: fcbe 2e3f 287d 5b3e fd21 e63e 3af6 50bb
000000e0: 7fed 773e cd17 42be 46ee 273e d3b0 14be
000000f0: b8df 92be e2b6 fd3e 7f6a 423e f58e 59be
00000100: c940 9bbd 22d9 85be dc6e bb3e 991a 7abe
00000110: 0f84 943e 72de c23e aad6 d4bd ef86 d83e
00000120: b6e7 a43e 2d34 f63d 73e3 20be 9ad7 923e
00000130: 2004 c53e 7055 9e3e 2f45 3dbe cb4b 5abd
00000140: 22be 963e 72c1 80be ab25 a93d f9d3 9ebc
00000150: 3715 dc3e 5ad1 53be 0e13 833e eae9 213e
00000160: f3b6 9a3e 8df0 ba3e ddd1 82be fc36 0bbe
00000170: 2a80 92bc 6112 203d 6eb9 b6bd 4893 943e
00000180: ac6a d73e c867 68be 7fea 1c3e 54a4 31bf
00000190: d74f b93e 36e6 e8be 8f81 febe 45be aebd
000001a0: 3d9b df3d a342 9b3e db87 9fbe 3c93 c2bd
000001b0: 6898 68be 2621 00bf 53b1 b5be d7b4 1fbf
000001c0: 79c9 2e3d c828 033f d9cf cbbe 4819 c3be
000001d0: 71a7 52be cc31 553e 5313 49be bdcb 9d3e
-0.5069143 0.21507546 -0.31516552 0.12609628 -0.468862 -0.23102185 -0.4368263 0.1699246
-0.19232789 -0.05103307 -0.0013168168 -0.41011584 -0.43455663 -0.13928714 0.24689828 -0.10608022
-0.10066798 -0.393827 0.039248317 0.3428546 0.12997429 -0.12664098 -0.21690601 -0.17987941
-0.029333685 -0.08426442 0.016508441 0.18749712 0.2537112 0.1928763 -0.36306104 -0.043364383
-0.30387458 -0.27958873 -0.057669416 0.44485334 0.292076 0.1901033 -0.50454307 0.339854
-0.03254306 -0.31881678 0.24982095 -0.36503223 -0.017111722 -0.10959548 0.15729162 -0.10585663
-0.42729998 -0.15650322 0.2789569 -0.4347154 0.6826017 0.21434462 0.44947806 -0.0031885044
0.24211691 -0.18954392 0.16399488 -0.14520578 -0.2868631 0.4955359 0.18985938 -0.2124594
-0.07580716 -0.26142222 0.36608016 -0.24424209 0.29007003 0.38060337 -0.103925064 0.42290446
0.3220803 0.120216705 -0.15711765 0.28680116 0.3847971 0.3092456 -0.18483423 -0.053294938
0.29441935 -0.25147587 0.08259138 -0.019388186 0.42984936 -0.2068533 0.25600475 0.15811887
0.30217704 0.3651165 -0.25550738 -0.13595194 -0.017883379 0.039080027 -0.08922087 0.29018617
0.42073572 -0.2269584 0.15323828 -0.6939137 0.36193725 -0.45488137 -0.4970822 -0.08532385
0.10918281 0.30324277 -0.31158337 -0.09500739 -0.22714388 -0.5005058 -0.3548685 -0.62385315
0.042672608 0.512341 -0.39807013 -0.38105226 -0.20571686 0.20819777 -0.19636278 0.30819502

fc1.bias f4 [30]
00000000: 4b4f a73b ecae f1bc 1085 4abd 5912 76bd
00000010: 57bf 88bd 044d c4bd e8c4 fa3d 1398 83bd
00000020: 1196 77bd 3eba dabd c56f 07bd 65c1 a83d
00000030: 238f a43d 43b5 d0bc 5f43 0a3d 7b9e 143e
00000040: f807 9f3d e797 39bd 3fc3 eebd f948 d73d
00000050: d02c ecbc 5f33 e2bd c426 4e3d 7aad 023d
00000060: 00da 1b3d 1fa0 15bd 546a dfbc 60b0 a43c
00000070: b77b 4dbd 5b1b aebd
0.005105888 -0.029502355 -0.049443305 -0.06007609 -0.0667712 -0.09585002 0.12244588 -0.0642549
-0.06044585 -0.10680054 -0.033065576 0.08240012 0.08035114 -0.025477057 0.033755656 0.1451358
0.07765192 -0.04531088 -0.11658334 0.10511965 -0.028829962 -0.110449545 0.05032994 0.03190372
0.038049698 -0.036529656 -0.02727238 0.020103633 -0.05016681 -0.085013114

fc2.weight f4 [30, 30]
00000000: b21c 1b3e 8cd7 873e ce35 d2bb f878 43bd
00000010: 5bf4 803e e039 0cbd cf47 823d 7b8f 4c3e
00000020: 0891 8c3e 2894 163e b78a dcbd 25e2 a4be
00000030: 8cd9 a93d 18bf 71be ba08 283d 7925 27be
00000040: 647d bdbe 9e12 043d 01af 1e3e 9b2a 88bc
00000050: 5f31 a3bd ca4a be3a 9124 033e 46d9 ddbc
00000060: 2526 be3c 093d 683e 9d65 123d ec3f 633d
00000070: 00f9 67bd ed9a 9f3e d03c 49be b965 783d
00000080: 641b 5f3e 6aee 2c3e a465 833b 52c0 5c3a
00000090: 3b3c 81be 6bc6 28be 5777 13be c418 1ebe
000000a0: 31de ebbd 11bb 273d 961b dbbd d46e 433e
000000b0: b142 bbbd cbb5 dd3d 47c5 8f3d e426 3e3e
000000c0: 3904 233e 2e7d 36be 7edf d9bd 45d5 c03d
000000d0: 2586 2abe bd84 f7bc e38b 43be 9aa1 b63b
000000e0: 06a0 9ebe 45a1 6abe d9da 9f3c 0756 40bd
000000f0: 64c2 f4be 9c61 0d3d 9e66 bd3e fc92 ce3e
00000100: 4a57 22be 3612 fd3d 0255 bcbe ed5c 153e
00000110: b525 90be 4267 8cbe f328 17bc 4e2b 183e
00000120: d75c 4fbd 1614 4ebc 75b1 94be c9d2 5c3d
00000130: c0e8 c93d 2590 753d bf1f b33c 5bf6 52be
00000140: b815 96bd 885e 863d 9313 4d3a d06b 79be
00000150: d998 77be a1c8 febc 7dd4 69be ef43 693d
00000160: 2345 953e 0ae5 583d 1c88 4cbc 7e72 5c3d
00000170: df93 22be 4fd0 f0be 709e 983e 982a 7e3e
00000180: d788 f23d 58cd a73e 7019 98bc bf5d a73e
00000190: ea94 ab3c 949c 88be 2d89 57be 7eea 243c
000001a0: d7b4 403e 4b22 8ebe f907 28be e6ef 5d3d
000001b0: cd21 6f3e dccc ae3e 736c cc3e 8936 be3d
000001c0: bd63 da3e 7ccc 65bc 97bf 393e fc95 cd3e
000001d0: dede d03d 5eca c1bd d0b8 703e 7149 823d
000001e0: 1cf7 963c fd4e b3bd d9fc 793c 503f 2ebe
000001f0: 7dd2 2a3e 4e41 003e 3ebb fdbd 5231 083e
00000200: e134 97bc bcf1 853e 3b53 bfbd 7e3f c2bd
00000210: 1766 79be ace9 d33d 35a1 4e3d d57a 9abe
00000220: 3252 5ebe a5f3 413e 35cc 353e d84f 093d
00000230: ed87 963d c0bc fe3d 8005 cfbc 9b45 663e
00000240: 09ca 173e 96bf ef3e 08bf 353e fc9f 8a3d
00000250: 1abf 1e3d 19e6 e2bd b0b0 6cbd 61a0 553e
00000260: c667 b03e 461a 63bd 913b 4b3d f1f5 ae3e
00000270: 9e1e ea3d 0789 203d 709d 5dbe 0c40 cb3c
00000280: 5f0e 9d3e ff22 623e 58c3 943e da4b f63c
00000290: 1529 553e 0bc2 2b3d 862a 683e 4a71 94be
000002a0: 9107 95be 4dc7 bc3d 8d95 0b3e 4172 c9bc
000002b0: f72c a93c ec20 2fbe 8c19 003f 0657 ed3e
000002c0: ebad bcbd 1a79 003f 9f27 753d 914e a4be
000002d0: c996 2fbe b04c 193e aa92 453d cc96 933d
000002e0: efda dfbd 450b cf3d c779 73be 5566 943a
000002f0: 711e 1fbe 8e54 1fbe c669 fbbd 7fa0 d03d
00000300: 127d 9fbd d022 c3bd 4cd7 b23b 64a9 63bd
00000310: 4251 423e b895 603e d02e 083e 8e68 e9bd
00000320: 3462 483d 37e6 31bd dc46 54bd ecad 77bd
00000330: 2752 f0bd cf2a f0bd c16e 08be 7544 b8bd
00000340: 53fd 1bbe ac20 9d3d 320d 4b3e d9e3 d53d
00000350: 1c08 dfbd 1ee3 a8bd 71cb 1d3e f61f 1f3e
00000360: 9d62 edba f681 f3bd 35d6 6a3e 46c1 a73e
00000370: 0c41 4cbd 7a32 143d 7094 04be e13a 44be
00000380: 3072 7abd 29a9 81be 7d3a 413d 1449 66bc
00000390: bf95 f73d b842 f5bd 0871 39bd 7ebb 013e
000003a0: 2d69 a6bd a558 023d 6348 36be c241 aa3e
000003b0: 4a1b 2c3d 28a6 623e cb48 56bd 5176 3c3d
000003c0: 1f46 d13c 3402 ad3e a5fa 013e 5f44 843c
000003d0: defb 853e ad89 fc3d 95a1 643d 1abd 9dbd
000003e0: c9ef 653e 48be 3a3e 09d2 59bc 0821 f53d
000003f0: c279 643e 2121 1fbe 2afc 49bd c4e6 813d
0.15147665 0.26531637 -0.0064151054 -0.047722787 0.25186428 -0.03423488 0.06361353 0.19976608
0.274544 0.14704955 -0.10768645 -0.32203785 0.08293447 -0.23608053 0.041023947 -0.16322888
-0.37009728 0.032244317 0.15496446 -0.016621878 -0.07968401 0.0014518138 0.12806918 -0.027081143
0.023211548 0.22679533 0.035741437 0.055480883 -0.05663395 0.31172886 -0.19652104 0.060643885
0.21787792 0.16887823 0.0040099192 0.0008420992 -0.25241265 -0.1648194 -0.14400993 -0.15439135
-0.11516989 0.040949885 -0.10698621 0.19085246 -0.0914358 0.1082569 0.070200495 0.18569523
0.1591958 -0.1782119 -0.10638331 0.09415678 -0.16652735 -0.030214662 -0.19096331 0.0055734636
-0.30981463 -0.22913082 0.019513534 -0.046957042 -0.47804558 0.034516916 0.36992353 0.40346515
-0.1585361 0.12356989 -0.36783606 0.1458623 -0.28153768 -0.2742253 -0.009226072 0.1486027
-0.05062565 -0.012578031 -0.2904164 0.053911958 0.09858847 0.05995192 0.021865724 -0.2060179
-0.07328361 0.06560999 0.0007823046 -0.24357533 -0.241794 -0.031101527 -0.22834964 0.056949552
0.2915431 0.052952804 -0.012483623 0.053820126 -0.15876721 -0.47033927 0.29808378 0.24820936
0.118425064 0.32773852 -0.018566817 0.3268871 0.020945031 -0.2668196 -0.21048422 0.010065673
0.18818985 -0.27760538 -0.16409291 0.054183863 0.23352738 0.3414067 0.3992649 0.092877455
0.4265422 -0.014025804 0.18139492 0.40153491 0.101987585 -0.094624266 0.23508 0.06361664
0.018428378 -0.087553 0.0152580375 -0.1701634 0.16681857 0.12524912 -0.12389229 0.13300064
-0.018457832 0.2616099 -0.09342047 -0.094847664 -0.2435535 0.10347304 0.050446708 -0.30171838
-0.21711043 0.189406 0.1775368 0.03352341 0.073501445 0.12438345 -0.025271177 0.2248749
0.14823164 0.46825856 0.17748654 0.06768796 0.038756467 -0.11079044 -0.05778569 0.20861961
0.34454173 -0.05544498 0.049617354 0.34172013 0.11431621 0.03919318 -0.21642089 0.024810813
0.30675027 0.22083662 0.29055285 0.030065466 0.20816453 0.0419331 0.22672471 -0.28992683
-0.29107335 0.09217701 0.13631268 -0.024590613 0.020651324 -0.17102402 0.5003898 0.46355456
-0.0921286 0.50184786 0.05985224 -0.3209119 -0.17147364 0.1497066 0.048235573 0.072064966
-0.1093043 0.10109571 -0.23776923 0.0011322001 -0.15538956 -0.15559599 -0.12276034 0.10186862
-0.07787527 -0.09528124 0.0054577943 -0.055581465 0.1897631 0.21932113 0.13299108 -0.11396895
0.04892178 -0.04343244 -0.05182539 -0.0604686 -0.11734419 -0.11726915 -0.133235 -0.08997432
-0.15233354 0.07672247 0.19829252 0.10443849 -0.108902186 -0.08246444 0.15409638 0.15539536
-0.0018111054 -0.118900225 0.22933276 0.32764643 -0.04986672 0.03618095 -0.1294725 -0.19163086
-0.061144054 -0.2532437 0.04717492 -0.014055509 0.12089109 -0.11975616 -0.04527381 0.12669179
-0.081255294 0.03182282 -0.17801051 0.33253294 0.042018212 0.22133696 -0.052315515 0.046011273
0.025546132 0.33790743 0.1269327 0.016145883 0.26168722 0.12330947 0.05581816 -0.07702084
0.22454752 0.18236649 -0.013294705 0.11969191 0.22312072 -0.15539981 -0.049312748 0.06342843

fc2.bias f4 [30]
00000000: 9039 d7bd d1e5 9f3d cf4a babd 4150 e5bd
00000010: 4a97 5ebb 39c2 dd3d c696 233d 558f 9ebd
00000020: 9581 abbc 81f9 b13d 3e92 fd3d 6115 e2bb
00000030: 5703 683c 3a1e c8bd 85ea fc3c 696f 79bd
00000040: 179e 273d 4822 2bbd e3f1 11bd 3977 4bbd
00000050: 1be2 a93c 706c 9c3d 5c81 6b3d 35af 783d
00000060: d3a3 aabd a1b6 e7bd 3d9d 0fbd d522 873d
00000070: ac5b 1a3d cd24 343d
-0.10509026 0.07807506 -0.090963 -0.11196948 -0.0033964687 0.10828061 0.03993871 -0.07742182
-0.020935813 0.08690167 0.12381409 -0.006899521 0.0141609525 -0.0977139 0.030873546 -0.060897265
0.04092225 -0.04178074 -0.03563107 -0.049674246 0.020737698 0.0763787 0.057496414 0.060713965
-0.08332028 -0.113141306 -0.035062063 0.065984406 0.03768508 0.04398041

fc3.weight f4 [3, 34]
00000000: 2ce5 c33d b6c5 16bb 0128 623d 1585 653d
00000010: 171f 813e bebb 0ebe 2b9a ebbe 6d36 8dbe
00000020: 9bc1 94be 25cd fc3e 1e2e 6dbe cefa 563e
00000030: 7bfb 24bd 2f37 003f 7998 a33e 2aa8 a9be
00000040: 9117 11be 6565 b13e 6213 72be 194a 84be
00000050: b6ff 40be 23ac 5f3c 6c30 953d 3cf2 45bd
00000060: 886d 49be e154 80be 0830 eabd f8e5 56be
00000070: c949 52be 6aa1 9c3e 2b29 c43c 3a5c 65be
00000080: 996f 14be 6112 07be 8369 9b3d 86c7 25be
00000090: 95a3 20be e2b7 65be ee6f b23e 332c dabd
000000a0: c83a 1ebd 69d3 8abe 2598 1fbe d994 ba3e
000000b0: e891 3cbe d732 983e 2377 93be ed22 e13d
000000c0: 70af 083e ba4f 63bc dd5d 40be bb52 953e
000000d0: 9cd8 b0bd bc9f 93be aed0 a73c 67e3 e2bd
000000e0: 565b db3d 634f 99be ebbf ad3b bfc7 9bbd
000000f0: e923 44be 28a9 6bbb 5cb0 063e d99f ba3e
00000100: 2fff a1bd 4d8d 2abe e71a 1dbe 97f7 f3bd
00000110: 960b 1e3e 9cd6 e5bd eeca b2be dcef 64be
00000120: 2793 5c3e 4c69 20bd c069 e63d 11d0 8dbe
00000130: b761 8bbe c223 e33e 09db 00bd d139 823e
00000140: 557c 2fbe 84e5 823e 3cc4 ed3c 6d81 9cbc
00000150: 5927 81bd ff4f 773e 9a3e 16be f5b5 bbbe
00000160: 4edf 88bd 470a 1cbe 6c8d 7dbc f543 acbc
00000170: 4158 e2bd 88f2 03bd 9fde 99bd 9568 72bd
00000180: 7b99 193e ab56 263e f7f3 bfbb cf66 cabb
00000190: 46b8 f2bc fdb1 f0bc
0.095651954 -0.0023006028 0.055213932 0.05603512 0.25219032 -0.13938805 -0.46016058 -0.27580586
-0.2905396 0.49375263 -0.23162124 0.20994112 -0.040278893 0.50084203 0.31952265 -0.33136111
-0.14169146 0.3464767 -0.23640206 -0.25837782 -0.18847546 0.01365188 0.07284626 -0.048326716
-0.19670689 -0.25064757 -0.114349425 -0.20986164 -0.2053596 0.305919 0.023945412 -0.22398463
-0.14495696 -0.13190605 0.07588484 -0.16189393 -0.15687402 -0.22433427 0.3485102 -0.106529616
-0.038630277 -0.27114418 -0.15585382 0.36441687 -0.18415034 0.29726288 -0.28801832 0.1099299
0.13348174 -0.013873989 -0.18785806 0.2916468 -0.08635065 -0.28832805 0.020485248 -0.1107853
0.1071078 -0.2994338 0.0053024194 -0.07606458 -0.19154324 -0.003595898 0.13153213 0.3645008
-0.079100005 -0.16655464 -0.15342294 -0.119124584 0.15434107 -0.11222574 -0.34920448 -0.22357124
0.21540509 -0.03916292 0.11250639 -0.27697805 -0.27222988 0.4436322 -0.03145889 0.25434735
-0.17137273 0.25565732 0.029024236 -0.019104684 -0.06306333 0.2415161 -0.14672318 -0.3666226
-0.06683217 -0.15238295 -0.015475612 -0.021028498 -0.11051989 -0.032213718 -0.07513165 -0.05918177
0.14999954 0.16243999 -0.0058579403 -0.0061768065 -0.029628884 -0.029381746

fc3.bias f4 [3]
00000000: 6f5d 70be a7f9 2fbe d9f0 15be
-0.23473142 -0.17185079 -0.14642657

exp_avg f4 [30, 4]
00000000: e6e8 40bb 9f94 e2bb 4048 01bc 8835 89bb
00000010: 56eb e6b9 bbc8 70ba afd0 ecba 27f3 b2ba
00000020: 32da 5539 eed2 893b 52dd 883b fa8f 1b3b
00000030: 3768 bb3a ceb4 693b 29c7 953b ef41 de3a
00000040: 081f 70b9 0a9f cbba f19d 0ebb aac2 bcba
00000050: bfe0 f6b8 d8f8 ed39 822d f638 bea7 0a3a
00000060: 7b2e 29bb ece8 bbbb b989 e7bb 71f7 3fbb
00000070: 5a6f 423a 1665 8a3a 8a41 d03a 036c 923a
00000080: 7826 c838 832e afba ca65 f7ba 8d01 aeba
00000090: 0aa4 04ba 8af8 36bb d1a3 42bb d975 06bb
000000a0: 9561 27bb 494c 8cbb b6fe c4bb 51bb 14bb
000000b0: 7efa eaba c831 0abb a8d0 3bbb 06cd b2ba
000000c0: f616 10bb 6d4d 17bb b202 7dbb ca8f b0ba
000000d0: 4e83 bbb8 daa3 d43a 6530 ee3a e557 be3a
000000e0: 70c7 10bb 6d75 b5bb 39bf dabb f107 57bb
000000f0: 8a44 4ab9 8ac5 3d3a 7386 483a 1e3f 263a
00000100: 7b74 06ba 12a1 113a e060 47b7 fd14 4439
00000110: 51b8 fa3a 23da 743b 64dd b63b a9ee e83a
00000120: 8879 f23a 8fd5 123b 0c49 723b ab66 9a3a
00000130: 8e40 1eba 16a6 27bb e88a 42bb df84 82ba
00000140: 96c8 87ba 7cbe 3cbb 7fde 70bb f472 eaba
00000150: 1eed ae3a 0649 5c3b e0be 823b 16dc f53a
00000160: e08f caba 4a65 8fbb 0419 9ebb ac85 23bb
00000170: fa68 8cb9 f118 6dba 4e30 30ba f30f 6db9
00000180: c9e5 5abb a78a 83bb c8c7 bebb 913e b5ba
00000190: d922 87ba 59ca 0cba 27f7 d1ba 809d 80b9
000001a0: b151 d0ba 1a80 abbb e5ab b8bb c458 50bb
000001b0: bbfb f1ba b92f 61ba 84ec 1bbb caea e4b8
000001c0: 7b18 fdb9 dc4c 27ba b8ae d3b8 7042 29b8
000001d0: b184 943a bfa0 e73a 9822 293b f0c5 8039
-0.0029435693 -0.0069146897 -0.007890761 -0.0041872896 -0.00044044357 -0.00091851846 -0.0018067564 -0.0013652787
0.00020394547 0.004206053 0.004176774 0.002373694 0.0014298026 0.0035660747 0.004570861 0.0016956906
-0.00022899744 -0.0015535068 -0.002176162 -0.0014401276 -0.00011772056 0.00045389566 0.000117386706 0.0005289278
-0.0025815058 -0.0057345536 -0.0070659784 -0.0029291774 0.00074171054 0.001055869 0.0015888673 0.0011171106
9.5439085e-05 -0.0013365302 -0.001887494 -0.0013275609 -0.0005059844 -0.0027919137 -0.0029699693 -0.002051702
-0.002554034 -0.004281555 -0.006011809 -0.0022694657 -0.0017927436 -0.00210868 -0.0028658304 -0.0013641424
-0.0021986342 -0.002308692 -0.0038606343 -0.0013470587 -8.941312e-05 0.0016223148 0.0018172382 0.0014522044
-0.002209153 -0.00553768 -0.0066756275 -0.003281113 -0.00019289754 0.00072392134 0.0007649429 0.00063418027
-0.0005129051 0.00055553124 -1.188388e-05 0.00018699835 0.0019128417 0.0037361465 0.005580591 0.0017771322
0.0018499354 0.0022405123 0.003696981 0.0011779865 -0.0006036841 -0.0025581173 -0.0029684845 -0.0009957812
-0.0010359462 -0.002880006 -0.0036753712 -0.0017887042 0.0013345813 0.0033612861 0.003990039 0.0018757607
-0.0015454255 -0.0043760883 -0.0048247594 -0.00249515 -0.00026781094 -0.0009044549 -0.0006721065 -0.00022608023
-0.0033401123 -0.0040143314 -0.0058221556 -0.001382785 -0.0010310068 -0.00053707283 -0.0016019092 -0.0002453141
-0.0015893487 -0.0052337768 -0.005635726 -0.003179119 -0.0018461862 -0.000859018 -0.0023792097 -0.0001091562
-0.0004827416 -0.00063819974 -0.00010093808 -4.0354615e-05 0.0011331049 0.0017671807 0.0025807973 0.00024561537

exp_avg_sq f4 [30, 4]
00000000: 7642 db38 02b3 2039 5598 3839 8de2 3339
00000010: e9da c036 690a dd36 0ad8 da36 b5e1 2737
00000020: 95c8 e837 66a2 2b38 82b9 5d38 7258 1138
00000030: 9846 c937 237c ee37 2f8a 2838 472e e237
00000040: 465d 3c37 5610 6d37 35a7 8437 d252 9437
00000050: d29c 3537 b907 1837 1bed 4e37 e459 3337
00000060: 0f5c 4f38 7bf0 6238 91e4 9938 6c91 4f38
00000070: 43a1 b237 2351 ca37 1c00 e037 7d3b da37
00000080: a914 1737 f134 5c37 46ec 5237 102b 9b37
00000090: 915e a337 5d8e ab37 1ea1 b737 d413 e337
000000a0: 086c 3838 f08e 5138 7467 8f38 8bf3 4738
000000b0: 889b 4038 75e2 8238 f9e1 9638 91c4 8338
000000c0: 57c4 5738 226b 5938 3672 8938 0ec5 6038
000000d0: a796 4a37 e6a6 a437 8c48 9937 07fc e637
000000e0: 20c9 2838 c6cb 4d38 67ba 9238 bbb6 3138
000000f0: 8652 8537 fe08 d036 2637 0837 6e21 3c37
00000100: 282d 8937 4861 b737 3fce c037 11ef d337
00000110: 7fc9 4338 0af7 3238 61ae 8538 e2e7 2b38
00000120: ac88 2538 3c70 1f38 8a22 5938 65ef 2538
00000130: 649b bb37 92b5 f537 fca0 3038 6f15 e637
00000140: 206e 8237 8a1b c737 cfe8 fa37 9a99 c337
00000150: 565f 9037 8676 9b37 1103 b237 de55 b237
00000160: ae31 6438 e5d8 aa38 51a5 d038 a859 ac38
00000170: faca 8136 135e b336 d0dc dc36 3b30 9936
00000180: 2fd5 1e38 e22f dd37 fc2d 6038 6240 a637
00000190: 2580 7d37 1df7 b136 46ae 5437 b27d 4337
000001a0: d2b0 1b38 21e8 7438 2b75 8b38 f5c5 6f38
000001b0: 7131 be37 565a 9436 a709 8d37 9948 c336
000001c0: 0083 1d37 6c5e 1a37 510f 4a37 3972 fb36
000001d0: c194 1537 6195 5836 6b5c f536 932e 7436
0.00010455113 0.00015325475 0.00017604356 0.00017155167 5.7475304e-06 6.587525e-06 6.5220565e-06 1.0006527e-05
2.7749958e-05 4.0920822e-05 5.2863274e-05 3.4653065e-05 2.399394e-05 2.8429617e-05 4.0183015e-05 2.6962849e-05
1.122739e-05 1.4130104e-05 1.5813488e-05 1.7681541e-05 1.0824953e-05 9.061704e-06 1.2333762e-05 1.0690161e-05
4.9438382e-05 5.4106564e-05 7.338182e-05 4.948808e-05 2.1294347e-05 2.4118059e-05 2.6702932e-05 2.6015327e-05
9.005112e-06 1.3125348e-05 1.2571987e-05 1.8497492e-05 1.947515e-05 2.0451082e-05 2.1890326e-05 2.7069742e-05
4.396963e-05 4.9962604e-05 6.838041e-05 4.7672114e-05 4.5921217e-05 6.241064e-05 7.194648e-05 6.28318e-05
5.144285e-05 5.1836607e-05 6.5539425e-05 5.3589283e-05 1.2075215e-05 1.9628042e-05 1.8272804e-05 2.7535496e-05
4.0241634e-05 4.9065588e-05 6.996543e-05 4.237027e-05 1.5893263e-05 6.19993e-06 8.119072e-06 1.1213457e-05
1.63527e-05 2.18606e-05 2.2984224e-05 2.5264484e-05 4.667928e-05 4.266858e-05 6.374415e-05 4.0985535e-05
3.946635e-05 3.801308e-05 5.1769e-05 3.956202e-05 2.2364497e-05 2.9290826e-05 4.21116e-05 2.7428117e-05
1.5548489e-05 2.3735472e-05 2.9910732e-05 2.3317338e-05 1.7210532e-05 1.8532632e-05 2.1220681e-05 2.1259239e-05
5.4405704e-05 8.1466314e-05 9.9490055e-05 8.218299e-05 3.868129e-06 5.3455674e-06 6.582217e-06 4.56537e-06
3.786868e-05 2.636755e-05 5.3448588e-05 1.9818723e-05 1.5109811e-05 5.303779e-06 1.2676761e-05 1.1652171e-05
3.7119557e-05 5.839032e-05 6.649861e-05 5.7166402e-05 2.2672788e-05 4.42126e-06 1.6813005e-05 5.8199043e-06
9.38843e-06 9.2011e-06 1.2043704e-05 7.49368e-06 8.9157265e-06 3.2273458e-06 7.312328e-06 3.6385943e-06

exp_avg f4 [30]
00000000: 7436 09bc 546c 07bb c77a 713b d8f3 833b
00000010: 7282 8eba 60ca a7b7 cb19 e1bb 6ffb 8b3a
00000020: a852 dfba c248 02bb 9297 a6bb 243b 4bbb
00000030: 216b 7fbb a166 453b cd73 bdbb 2f4c 85b9
00000040: 57b6 0b3a f2f1 ba3b c691 673b 5a8a 17bb
00000050: ab12 39bb 2406 a43b f2d0 abbb 4c13 33ba
00000060: 7ec9 8fbb f79d 81ba c221 a8bb f0e8 2dbb
00000070: cca3 1cba 7954 f53a
-0.008374799 -0.0020663934 0.0036846863 0.004026871 -0.0010872616 -2.000219e-05 -0.00686953 0.0010679791
-0.0017038183 -0.0019879793 -0.0050839866 -0.0031010592 -0.0038973766 0.0030120986 -0.005781627 -0.00025424498
0.00053296 0.0057051117 0.003533469 -0.0023123235 -0.0028239887 0.005005615 -0.005243414 -0.00068311836
-0.0043880334 -0.0009888996 -0.0051309774 -0.0026536547 -0.00059753354 0.0018717191

exp_avg_sq f4 [30]
00000000: 1b40 9239 3a38 9537 6bbe 8b38 48da 8338
00000010: ab07 0038 c275 0238 ccd6 f038 e029 5438
00000020: a4be 1638 fe55 5b38 7550 e638 78fa f338
00000030: 0470 fd38 ab8d 2638 ff69 dc38 4479 0838
00000040: 95c9 3c38 d0f3 ed38 c493 cb38 cb64 8238
00000050: b030 2538 238c 3e38 7477 1f39 95a6 1f37
00000060: e2c2 ec38 4b85 4938 f572 bd38 31d5 9238
00000070: 7da1 db37 c9cc de37
0.00027895052 1.7788367e-05 6.6635046e-05 6.287225e-05 3.052472e-05 3.1104086e-05 0.00011484101 5.0583738e-05
3.5940335e-05 5.2293755e-05 0.00010982241 0.000116337964 0.00012084845 3.9709423e-05 0.00010510161 3.2537864e-05
4.501043e-05 0.00011346454 9.707318e-05 6.217657e-05 3.938441e-05 4.5430043e-05 0.00015207921 9.515924e-06
0.00011289657 4.8046273e-05 9.033635e-05 7.0015325e-05 2.6182033e-05 2.6559823e-05

exp_avg f4 [30, 30]
00000000: b759 0c39 a50f ccb8 811f 8e38 5a3a ef38
00000010: 386d 33b9 174f deb8 1a9d 1bb8 43be 52b8
00000020: eaca d2b8 836d 14b9 4485 c8b7 bd36 ac36
00000030: f8ec 2139 9a24 dc37 2240 bfb8 2662 b439
00000040: d6ee 5537 774c 34b7 b0d3 d2b8 fc4d 8036
00000050: 9654 2bb9 8816 2bb9 b701 4438 7944 cab7
00000060: 7abe 84b8 c36c afb9 7e74 4c38 9811 4fb8
00000070: 3464 2139 9e8a 8438 a443 83ba 65d5 02bb
00000080: 7aed 82ba 942c 1cba a9e3 27ba c366 9dba
00000090: 6f9e 083a 426d 05ba 74ee 58ba fefc 0bba
000000a0: d202 0aba f6d2 9b39 1433 fbb9 e564 083b
000000b0: d2b9 d739 e4a3 ac3a 60e0 a139 4c0c 983a
000000c0: d978 ab39 e486 6c3a efc7 8e38 a41f 4d3a
000000d0: cf4f d839 7acb aa39 68d0 57b7 3a9e eaba
000000e0: daf5 a3b9 73ab 0dbb 745f 47ba 5e33 c0b9
000000f0: 9dc7 25ba eccb a1ba a4f7 c9b8 876c ccb9
00000100: 3a67 ffb9 8e08 aab9 fc48 3f39 184b 66b8
00000110: 0c9c 3bba 24ec b9b9 1a28 3239 950b 9f38
00000120: 0e32 0eb9 dbc9 a93a d7e5 093a 8878 053a
00000130: 129e 5539 ee30 9b39 a76e 3839 97ae cf39
00000140: 0c46 9039 d655 aa39 5ea2 5939 92ee 0638
00000150: a8a6 3e3a 526e 2cba 4a34 a238 6c3d 88ba
00000160: 063d 3ab9 2297 1eba 0eac 29ba c1de 87ba
00000170: 43cb 23ba 52c5 01ba e750 a6b9 697b 09ba
00000180: 61cc 8339 6369 fcb8 2618 fbb9 3a4f e3b7
00000190: 62b9 c5b9 e0bc 0339 c0b5 00ba f2a8 903a
000001a0: 8467 7c39 9436 f639 3ca9 6e38 bc80 3c3a
000001b0: 5310 ad39 8ee1 223a 8fb1 0739 6dbe 0e3a
000001c0: 38bb b939 5610 4039 8466 0eb7 b113 35ba
000001d0: c2a1 d7b8 5679 74ba 19e1 a4b9 7d13 3cb9
000001e0: f8b4 acb8 4083 0c37 10db 6ab9 68d1 bcb8
000001f0: fc6e 2239 a20f 10b9 8801 4a39 d4ec 00b9
00000200: cb61 0739 e8e7 a536 0a2f 01b9 bb23 7438
00000210: d15a 0bb9 003d 89b5 24a6 3f38 1ca8 b5b8
00000220: 64d7 3138 1ca8 f038 b0a6 2738 d8d1 cd37
00000230: efad 7838 d2a0 da38 6d45 c4b8 e9f7 0839
00000240: 701a 03b9 0049 0c37 d0f6 28b9 d4e4 f7b8
00000250: d020 aab9 dc50 c9b7 31dd 083b 13dc 0c3b
00000260: 1ccd b939 fdba c539 cded 8c39 5c3a 5439
00000270: f8d3 28b8 38ba bb39 6b09 8b3a 203e 453a
00000280: fc2d 30ba 979a f9b9 90ad 42b8 522d 2bbb
00000290: c32e 91ba d029 8538 c61b 62ba 7ba9 04b9
000002a0: 40a7 96b8 3455 0aba a767 75ba 4088 c7ba
000002b0: e9ff c6b8 344a b239 c7ec e4ba c61a 8139
000002c0: 96f1 0c3a 184c 7f3a 6242 533a a229 9d3a
000002d0: ee90 0bba 2c97 13bb d207 80ba 00ea 80b9
000002e0: b62c 89ba ca6b bdba a600 7f39 d921 11ba
000002f0: 47c1 7aba 8450 16ba 31ce 6eba b078 1439
00000300: a550 bcb9 2a1a 183b 77a0 c1b8 39e3 f83a
00000310: d06e 7a38 e8c8 d23a 7888 a539 e6f8 6b3a
00000320: 5639 fbb9 e749 043a 8098 123a d5e0 a039
00000330: 82a3 23ba a835 1dbb 64ce 04b9 41d9 35bb
00000340: f07e 4cb9 84f8 5539 eeb2 0fb8 157b c5b8
00000350: 4cf4 4f39 0182 d538 08aa 28b9 3036 9a38
00000360: d2a9 fbb8 b7df 8637 bd76 45b9 53be 2ab9
00000370: 727a 2839 97a5 eb37 e630 5c39 9e46 ca37
00000380: 2f3c 1738 b847 0c39 2c42 c938 3d12 37b9
00000390: 2932 ffb8 b159 88b7 1598 9db7 7aab 92b8
000003a0: 788d 4438 3dc4 0fb9 828e 7b39 6201 32b8
000003b0: 9258 5d38 a24d 6839 9fb0 4b39 1fbe cab8
000003c0: 2320 0539 1965 0639 40a2 2c36 c8b8 2cb9
000003d0: d853 d7b8 76bd 4639 27db ddb8 a2d6 9639
000003e0: df1b 7bb8 0f64 a539 01aa 38b9 b6a3 21b9
000003f0: 7e2f 5ab9 04a8 84b8 34d1 e1b8 6270 fcb8
0.00013384862 -9.730392e-05 6.776956e-05 0.00011407277 -0.00017111457 -0.000106005165 -3.7101192e-05 -5.0245097e-05
-0.00010051376 -0.00014155176 -2.3903915e-05 5.132372e-06 0.00015442434 2.6243088e-05 -9.1195354e-05 0.00034405402
1.2751398e-05 -1.0746639e-05 -0.0001005301 3.823776e-06 -0.00016339342 -0.00016316224 4.673164e-05 -2.4112162e-05
-6.3297295e-05 -0.00033459635 4.8745882e-05 -4.936903e-05 0.00015391485 6.32007e-05 -0.0010014665 -0.0019963619
-0.0009988986 -0.00059575704 -0.00064044684 -0.0012008775 0.0005211597 -0.0005089828 -0.00082752784 -0.0005340128
-0.00052647025 0.00029721082 -0.00047912507 0.002081209 0.00041146443 0.0013171402 0.00030875485 0.0011600344
0.000327057 0.0009022786 6.808328e-05 0.0007824844 0.00041258193 0.0003257653 -1.2863522e-05 -0.0017899938
-0.00031272956 -0.0021617084 -0.0007605471 -0.00036659365 -0.0006323995 -0.0012344099 -9.6305535e-05 -0.0003899077
-0.000487143 -0.000324313 0.00018242368 -5.490621e-05 -0.00071567367 -0.00035461888 0.00016990342 7.583868e-05
-0.00013560822 0.0012953834 0.0005260384 0.0005091508 0.00020372149 0.0002960036 0.00017588829 0.00039612196
0.0002751801 0.0003248888 0.00020755219 3.2170276e-05 0.00072727585 -0.00065777183 7.7345016e-05 -0.0010394282
-0.00017761075 -0.0006049742 -0.00064724765 -0.0010366068 -0.0006248245 -0.00049503625 -0.00031722264 -0.0005244525
0.0002513854 -0.00012035926 -0.00047892443 -2.7097401e-05 -0.0003771289 0.00012563495 -0.00049098954 0.0011036678
0.00024071155 0.0004696144 5.6901234e-05 0.0007190814 0.00033009294 0.000621342 0.00012940749 0.0005445246
0.0003542544 0.00018316632 -8.487728e-06 -0.00069075363 -0.00010282129 -0.0009325942 -0.00031448228 -0.00017936337
-8.235307e-05 8.375209e-06 -0.00022397586 -9.0035435e-05 0.00015490869 -0.00013738734 0.00019264792 -0.00012295257
0.00012911034 4.9443806e-06 -0.00012319922 5.820741e-05 -0.00013289905 -1.0225049e-06 4.569268e-05 -8.6620654e-05
4.2400687e-05 0.000114754046 3.9971143e-05 2.453562e-05 5.9289796e-05 0.00010425005 -9.35894e-05 0.00013062324
-0.00012502982 8.361647e-06 -0.00016113673 -0.000118205004 -0.00032449374 -2.399872e-05 0.0020883793 0.002149348
0.00035438768 0.00037714085 0.00026880056 0.00020239636 -4.0251733e-05 0.00035806163 0.0010607665 0.0007524211
-0.00067207194 -0.0004760816 -4.6414847e-05 -0.0026119542 -0.0011076558 6.3497224e-05 -0.00086253544 -0.00012651637
-7.18371e-05 -0.00052769785 -0.00093614537 -0.0015223101 -9.489043e-05 0.0003400609 -0.0017465585 0.00024624745
0.0005376575 0.0009738817 0.0008058903 0.0011990557 -0.00053240254 -0.0022520525 -0.0009767956 -0.00024588406
-0.0010465595 -0.0014451679 0.00024318937 -0.0005536355 -0.0009565544 -0.00057340437 -0.00091097044 0.0001415934
-0.0003591824 0.0023208954 -9.232846e-05 0.0018988616 5.9707847e-05 0.0016081603 0.0003157293 0.00090016273
-0.0004791717 0.00050464127 0.0005592182 0.0003068509 -0.0006242321 -0.002398828 -0.00012665387 -0.0027747902
-0.00019502244 0.00020405842 -3.4260498e-05 -9.416618e-05 0.00019832066 0.000101808466 -0.0001608507 7.3533854e-05
-0.00012000244 1.607822e-05 -0.00018831617 -0.00016283365 0.00016067343 2.8091292e-05 0.00020999051 2.411316e-05
3.6057256e-05 0.00013378158 9.596752e-05 -0.00017459034 -0.000121686906 -1.625423e-05 -1.8786677e-05 -6.9937625e-05
4.6861795e-05 -0.00013710647 0.00023990314 -4.2439795e-05 5.2772994e-05 0.00022154165 0.00019425385 -9.6675234e-05
0.0001269584 0.00012816898 2.572444e-06 -0.00016472035 -0.00010267616 0.00018953331 -0.000105789215 0.00028770143
-5.986902e-05 0.00031545802 -0.00017610939 -0.00015415144 -0.00020807792 -6.325546e-05 -0.00010767803 -0.00012037229

exp_avg_sq f4 [30, 30]
00000000: ed0a 8135 bc10 0c35 0573 e335 83ac 0835
00000010: 5bde 0135 0c2a 8335 90f1 3c35 ba92 9934
00000020: b70e 9135 62cb 5b35 d1d5 1236 e86d a633
00000030: b896 c735 f164 4935 51be 1a35 eda0 5935
00000040: 6a83 2b35 3a67 1336 b0a7 1335 567a fd34
00000050: e7b9 3735 8f08 1035 623d d234 dc76 7d35
00000060: 487a 8836 d33f c135 dac3 b934 6e10 8536
00000070: e4a8 9d35 9e74 8635 1e5a 7436 399d b136
00000080: 7bbe 5536 cee5 3c36 04c3 a335 941d ae36
00000090: a30f 7835 809a 2c36 b537 0f36 708d 5d36
000000a0: dce4 a336 cd95 0735 6509 5236 917f ea36
000000b0: 799a 1136 6827 0237 2310 a835 4ec2 e336
000000c0: fe63 ed35 ffc0 1d36 0583 6f36 2e98 3136
000000d0: 4b8e ea35 2bef d335 3e7a 2937 026a 6137
000000e0: 25c7 1f36 1ce6 8537 a68d 4636 fda0 2536
000000f0: a475 9936 7aab e436 b857 1636 26ba b336
00000100: f5a3 6936 a889 9636 3b29 ff35 5733 b236
00000110: 7430 7d36 5a87 1937 b04e 2936 aa1b 2736
00000120: 950c d036 9bf6 f736 4773 3936 7a07 1a37
00000130: 1e43 9636 03a2 7236 645a 9b36 c2dd 8536
00000140: 56d2 8636 1311 8b36 de4d 8136 57fb f535
00000150: b7e9 9636 7df2 4b37 fc19 9036 754a 0337
00000160: 30d5 8836 ed6d 3736 c855 f536 fb33 7b37
00000170: 38f1 0837 02a6 b036 ff0a 0f36 37bb 7136
00000180: 0d40 9935 aa38 0435 64f4 8b36 42f5 e635
00000190: 90e8 e136 d60c 6334 9810 1a37 6e42 b037
000001a0: 55be a235 d186 6936 3989 7d35 36c8 6b37
000001b0: 08f8 8d36 0b4f ec36 6698 7335 6fe5 d936
000001c0: 82f3 4936 de38 e735 c27c d336 ebfc 1637
000001d0: 1766 2835 c109 c637 49e8 3336 769e e435
000001e0: 540f 4636 9c5c aa36 dbab 6336 ca00 2836
000001f0: eb81 4d35 c0af ae35 f44f 3535 9490 b434
00000200: 347e e735 abe9 7e35 ba9c 3136 de42 3834
00000210: 1b74 8136 b05b f536 e539 3f35 c5a2 8535
00000220: 2f58 0735 ddb4 a836 a56c e535 a599 3f36
00000230: 3be6 1935 a3d1 2636 f875 a735 dc57 6f35
00000240: c0bd 5d36 b73a 4936 c3fc aa34 3a95 0a37
00000250: 78af b335 3c59 8135 8027 5c37 da50 7a37
00000260: 93b2 ea35 99fe c236 1432 8435 e5a9 3636
00000270: dbab 9635 4e16 a436 4168 a636 bc89 2537
00000280: a741 8e35 9df4 fe35 255a e636 edbd ab37
00000290: 910c 7e36 a509 b436 7baa ab36 6adc 4536
000002a0: 0757 9d36 c717 ad36 a895 6036 6284 1837
000002b0: 9a22 5a36 507d 9734 c4a6 0337 62ff 0237
000002c0: 4db8 7436 8085 fc36 65fa 9f36 8c7a 9c36
000002d0: e042 3237 46d8 8137 03d9 1d37 8804 1637
000002e0: c009 8636 5701 8137 27b5 4636 8502 0337
000002f0: 2330 d336 1db8 2b37 4725 8837 d14e fd35
00000300: a291 1f37 97ee b137 47ad f436 7c0d ce37
00000310: fc85 8436 323a b937 db37 ca36 fa3f 0737
00000320: 692f 5337 65db 0a37 91fe c436 650c ba36
00000330: 9b69 0938 3365 3138 ab83 1837 9391 5338
00000340: 854c 2737 4fbf ff36 801a bf34 8975 c734
00000350: 033a 5c35 7587 9a34 19f6 b334 9037 cc34
00000360: d9c7 de34 66e5 3a34 9904 3c35 f7bb b734
00000370: 6deb 7635 9ccc e732 dc25 3e35 c16e f534
00000380: 29ee 5e34 cfb5 8434 5308 2c34 b3aa 6a35
00000390: fbb5 9734 0765 7634 13a2 b234 3203 8d34
000003a0: e7ea 6634 4923 0435 f727 0136 3ba8 0a35
000003b0: 2e88 9d34 9f57 dd35 bb61 6635 708b b434
000003c0: 30a5 8735 4185 1935 9afe 4835 ca1b 8c35
000003d0: bfa7 9934 c556 d435 f583 0135 f5eb b135
000003e0: e5b2 6035 1c5f d235 6c82 9735 d333 2034
000003f0: 1dcb a635 bc9b 8935 3c89 1e35 79e3 1736
9.614429e-07 5.2178416e-07 1.6946293e-06 5.0914986e-07 4.8379815e-07 9.772498e-07 7.038698e-07 2.8605228e-07
1.0807624e-06 8.187982e-07 2.1880153e-06 7.749969e-08 1.487052e-06 7.5025224e-07 5.764642e-07 8.107298e-07
6.3893697e-07 2.1964793e-06 5.5005785e-07 4.7213933e-07 6.8443336e-07 5.3656635e-07 3.916021e-07 9.442281e-07
4.0673513e-06 1.4398196e-06 3.4601436e-07 3.9656215e-06 1.1746565e-06 1.0017718e-06 3.6411288e-06 5.293314e-06
3.1850348e-06 2.8147947e-06 1.2201203e-06 5.1890474e-06 9.2409954e-07 2.5719928e-06 2.1341086e-06 3.3013894e-06
4.8844213e-06 5.050941e-07 3.1297907e-06 6.988594e-06 2.1696599e-06 7.757779e-06 1.2521672e-06 6.787747e-06
1.7686978e-06 2.3507162e-06 3.5690039e-06 2.6463636e-06 1.7475771e-06 1.5790332e-06 1.0101647e-05 1.3435727e-05
2.3808764e-06 1.5961989e-05 2.958675e-06 2.4680623e-06 4.5734505e-06 6.814892e-06 2.24028e-06 5.3562862e-06
3.481514e-06 4.4863737e-06 1.901098e-06 5.31079e-06 3.7728141e-06 9.151025e-06 2.5228765e-06 2.4901042e-06
6.200348e-06 7.3898823e-06 2.7634248e-06 9.180856e-06 4.478162e-06 3.6155113e-06 4.629883e-06 3.989525e-06
4.0179975e-06 4.1445105e-06 3.8535645e-06 1.8327072e-06 4.4975563e-06 1.2156202e-05 4.2945594e-06 7.825544e-06
4.077934e-06 2.733311e-06 7.3115552e-06 1.49728685e-05 8.162395e-06 5.2645346e-06 2.131506e-06 3.6020772e-06
1.141803e-06 4.925629e-07 4.1709736e-06 1.7207715e-06 6.7325964e-06 2.1145692e-07 9.182979e-06 2.1011769e-05
1.2125334e-06 3.479818e-06 9.444953e-07 1.4053707e-05 4.231002e-06 7.04255e-06 9.0746323e-07 6.4938135e-06
3.0093074e-06 1.7227392e-06 6.3028137e-06 8.999584e-06 6.273344e-07 2.3607981e-05 2.6808286e-06 1.7033442e-06
2.9513221e-06 5.077176e-06 3.392567e-06 2.503441e-06 7.6557507e-07 1.301516e-06 6.75441e-07 3.3632807e-07
1.7247571e-06 9.4962405e-07 2.6466282e-06 1.7160662e-07 3.858016e-06 7.312243e-06 7.123729e-07 9.956644e-07
5.0419743e-07 5.0278454e-06 1.7093449e-06 2.855065e-06 5.733197e-07 2.4857952e-06 1.2476803e-06 8.916229e-07
3.3042015e-06 2.998551e-06 3.1848876e-07 8.2601855e-06 1.3387607e-06 9.63722e-07 1.3122219e-05 1.4919986e-05
1.748633e-06 5.8112896e-06 9.849341e-07 2.7219005e-06 1.1225887e-06 4.8901775e-06 4.9593223e-06 9.866835e-06
1.0598932e-06 1.8995667e-06 6.8650284e-06 2.047323e-05 3.7856264e-06 5.365541e-06 5.1160437e-06 2.9483585e-06
4.689096e-06 5.15857e-06 3.3465712e-06 9.090729e-06 3.2504672e-06 2.821712e-07 7.847037e-06 7.808065e-06
3.646611e-06 7.5257267e-06 4.767719e-06 4.6634286e-06 1.0625197e-05 1.5478709e-05 9.408456e-06 8.941752e-06
3.9946462e-06 1.5378622e-05 2.9609744e-06 7.808795e-06 6.293894e-06 1.02352615e-05 1.6229822e-05 1.8872908e-06
9.511046e-06 2.1211146e-05 7.291939e-06 2.4563393e-05 3.9495044e-06 2.2080818e-05 6.0265716e-06 8.061523e-06
1.2587619e-05 8.276523e-06 5.8708906e-06 5.544675e-06 3.2761698e-05 4.2294338e-05 9.090562e-06 5.0441897e-05
9.971792e-06 7.6218635e-06 3.5595804e-07 3.7152157e-07 8.2040805e-07 2.8783293e-07 3.3520408e-07 3.8038388e-07
4.149613e-07 1.7406055e-07 7.004215e-07 3.422317e-07 9.198473e-07 2.6984985e-08 7.083561e-07 4.571539e-07
2.0762003e-07 2.47192e-07 1.6021777e-07 8.7420193e-07 2.825835e-07 2.2947289e-07 3.3273008e-07 2.6265621e-07
2.1505876e-07 4.922518e-07 1.924576e-06 5.1653814e-07 2.9342613e-07 1.6491284e-06 8.5823893e-07 3.3629067e-07
1.010636e-06 5.719085e-07 7.48763e-07 1.04389e-06 2.8620522e-07 1.5820484e-06 4.824827e-07 1.32562e-06
8.370683e-07 1.56739e-06 1.1288334e-06 1.4920015e-07 1.2427078e-06 1.025262e-06 5.905929e-07 2.263316e-06

exp_avg f4 [30]
00000000: 3c6a 5038 40d0 633b 54e8 9a3a 881e e53a
00000010: 3cb2 683a 4009 9cba b1c2 163b a86f 93b9
00000020: 7076 11ba 75c0 3bbb c391 95ba ea4c 623b
00000030: 44a0 6e3b 6b66 303a 91eb 673b ba8f 9c3a
00000040: c0fa cd3a 0400 0000 0400 0000 0509 6b3a
00000050: 641e 573b a6b4 123b fc0b 913b a6d5 913a
00000060: 14a3 b639 6041 96ba 0400 0000 8e5b 8c3b
00000070: 4442 503b 302f 243b
4.9690003e-05 0.0034761578 0.0011818507 0.0017480412 0.00088766566 -0.0011904612 0.0023004229 -0.00028121215
-0.00055489596 -0.002864865 -0.0011411238 0.0034530708 0.0036411444 0.00067291287 0.0035388211 0.0011944689
0.0015714988 6e-45 6e-45 0.00089658826 0.003282451 0.0022385507 0.0044264775 0.0011126294
0.00034835248 -0.0011463575 6e-45 0.004283375 0.0031777779 0.002505254

exp_avg_sq f4 [30]
00000000: c7cc 5c37 0734 1238 8b17 fa37 d3c5 7138
00000010: d55d d737 8a20 de38 ce83 e238 5f83 0637
00000020: a329 8637 c0a8 9638 b432 a437 0d7e b938
00000030: cdcf 3438 9689 a437 c4ab b938 7c5a 3f38
00000040: f8f8 1d38 0a7c 3233 9578 0935 057a 4938
00000050: ea4b 5f38 2bf2 b538 a7c6 7738 f034 7838
00000060: fc12 3436 e5be 5c37 d2da 6333 dbed a838
00000070: d48a 5338 07ad 0438
1.31607e-05 3.4857567e-05 2.9813285e-05 5.7643116e-05 2.5673691e-05 0.00010591846 0.0001080107 8.01761e-06
1.5993433e-05 7.1839895e-05 1.9573934e-05 8.844966e-05 4.3108874e-05 1.9614392e-05 8.853481e-05 4.562222e-05
3.7663587e-05 4.1556667e-08 5.1211947e-07 4.8035774e-05 5.3238044e-05 8.67586e-05 5.90744e-05 5.917711e-05
2.683314e-06 1.3157468e-05 5.3051572e-08 8.055168e-05 5.0435614e-05 3.1632397e-05

exp_avg f4 [3, 34]
00000000: 6f02 4361 a999 8b6c f8b2 916c c39b 9168
00000010: 8b58 36ba fe10 10bc 6413 0e3a 567a beba
00000020: 0d17 8fba c63c 37ba 8005 07bb e0e8 eab9
00000030: 0f48 263b 9c8c 90ba 0dd3 fdb9 327f d3ba
00000040: d715 c8bb 3c48 e7b9 18bd 93bb 3f5a 25b9
00000050: 7995 a5bb 0400 0000 0400 0000 bc20 09ba
00000060: de90 e2bb 9e10 eeba 050f 3fbc 2639 8dbb
00000070: 221e 0bb8 6cfb 4bba 0400 0080 9350 fcbb
00000080: 8639 0bbc e643 03bc b0ec 92ba 3e0c feba
00000090: 3b28 4eba 4849 13ba b3e7 8db8 2d03 52ba
000000a0: 32ed 9039 62fb 223a 7757 8e39 c682 15ba
000000b0: 3429 19ba 7cf3 c4b9 f96f 573a 4e6a 9cb8
000000c0: d8bc 66ba b3cc 41ba 3a60 fdba 7e75 1b39
000000d0: 4aad 3eba c842 3eb9 65ee ccba 0400 0080
000000e0: 0400 0000 7c45 0539 5962 893a 4033 d7b9
000000f0: f233 2bbb 080b cc3a 513d 8bb7 d105 b2b9
00000100: 0400 0080 922b 18bb 64c0 2f39 10ee 58ba
00000110: 34d0 e33b c0fb 7738 c4cf a2bb 80f7 e539
00000120: 4a2c a9b8 1ac4 c2bb 6ccb 9639 9ad1 b339
00000130: 2f63 2d3a 427a e8ba 0034 5bbb a06f 26b9
00000140: 267e f0b9 f746 c7ba 4865 61ba e400 2dbb
00000150: 1826 a3b8 69dd 2eb9 36e2 093b 9d2e d9ba
00000160: c221 123b 0400 0080 0400 0000 6d3d 2fbb
00000170: 9b17 653a 889a 74ba 255a e3ba 803a 40b7
00000180: a570 1b36 3609 42b9 0400 0080 3e66 0fbb
00000190: 92c7 47bb 8f6e 2abb
2.2483065e+20 1.3501306e+27 1.4091152e+27 5.5009315e+24 -0.0006955943 -0.008793114 0.00054197595 -0.0014532309
-0.0010916904 -0.0006989952 -0.0020602643 -0.00044805463 0.002537254 -0.0011028233 -0.00048413165 -0.001613593
-0.006106119 -0.00044113572 -0.0045086257 -0.00015769246 -0.005053219 6e-45 6e-45 -0.0005231013
-0.006914242 -0.0018162911 -0.011661296 -0.004309791 -3.3168246e-05 -0.00077813 -6e-45 -0.007700035
-0.008497601 -0.008011794 -0.0011209454 -0.001938231 -0.0007864271 -0.0005618525 -6.766561e-05 -0.00080113375
0.00027642545 0.00062172685 0.00027149517 -0.00057033857 -0.00058426266 -0.00037565443 0.00082182843 -7.4584605e-05
-0.00088019436 -0.0007392868 -0.0019331046 0.00014825721 -0.0007273747 -0.0001814469 -0.0015635012 -6e-45
6e-45 0.00012709753 0.001048158 -0.0004104618 -0.002612349 0.0015567252 -1.6598644e-05 -0.0003395514
-6e-45 -0.002321933 0.00016760972 -0.000827522 0.00695231 5.912385e-05 -0.0049686152 0.00043862686
-8.0667975e-05 -0.0059437873 0.0002876179 0.00034297706 0.0006614206 -0.0017736631 -0.0033447742 -0.00015872577
-0.00045870355 -0.0015203644 -0.0008598161 -0.0026398236 -7.779541e-05 -0.00016676415 0.0021039373 -0.0016569678
0.0022297953 -6e-45 6e-45 -0.0026739493 0.0008739174 -0.0009330888 -0.0017345591 -1.1457712e-05
2.3162368e-06 -0.00018504713 -6e-45 -0.002188101 -0.0030483943 -0.002600584

exp_avg_sq f4 [3, 34]
00000000: 0000 807f 0000 807f 0000 807f 0000 807f
00000010: 0458 9836 bf4a 1f3a ca60 5438 516b 8138
00000020: b81f 9a37 3580 5337 1204 4e39 c283 4936
00000030: 1f72 dd37 ec8b 3f37 87a3 2e37 0848 4839
00000040: a6c4 4e39 3ba6 bc36 a6d6 3b39 8ca3 fb37
00000050: 0f3d 5739 e028 6d33 2073 8134 aad2 2138
00000060: 8710 9139 70f8 4c39 7d01 a839 11e2 b139
00000070: dcc4 1a37 8721 8336 7d71 fe34 e29c 7939
00000080: b23b d439 cfca 8d39 5cb8 9639 d3a4 f139
00000090: f707 053a ad83 d839 889d 9236 da5a ba39
000000a0: 300e e836 a4e4 5e38 d6c3 8737 c599 4437
000000b0: 5d53 0239 9ac1 fb35 b910 3037 4ed8 4537
000000c0: 7055 4f37 61d5 b538 ffa7 c538 b172 de36
000000d0: 52c1 d638 afa5 e337 56c0 1639 b08a 6730
000000e0: 1afa 9e33 da08 8737 f4cd 1d39 e563 fd38
000000f0: 954c 4939 0f3e 6e39 ddbd e034 1cfa 6d36
00000100: 7023 0631 0cf7 0b39 7baf 8039 f9bf 2d39
00000110: 9c4c c439 1591 303a 51b5 3a3a d0d0 0e3a
00000120: e896 4736 13b8 063a 1d93 1637 fb0c 7a38
00000130: 35b2 8d37 7888 5237 786f 2939 f4ae a635
00000140: 3bd0 2e37 58b5 5e37 b6fc 4d37 a00e f038
00000150: a9ad 1d39 55eb be36 218b 2839 e6e9 e437
00000160: 3377 6739 988b e030 4e23 0934 9c01 9737
00000170: dbf0 5039 2242 3139 f03e 9039 e73a 9b39
00000180: 4b91 3a35 5331 1c36 be6e e430 5e00 5b39
00000190: 4ec6 b139 6a72 8539
inf inf inf inf 4.5401994e-06 0.00060765067 5.063488e-05 6.1711886e-05
1.8373e-05 1.2606431e-05 0.00019647207 3.0028027e-06 2.6398395e-05 1.1417065e-05 1.0409282e-05 0.0001910032
0.00019718948 5.6221884e-06 0.00017913672 2.999769e-05 0.00020526744 5.5218038e-08 2.4111887e-07 3.8581587e-05
0.0002766887 0.00019547506 0.00032044566 0.00033928503 9.22495e-06 3.9080073e-06 4.739376e-07 0.00023804934
0.00040480267 0.0002704472 0.00028747588 0.00046089906 0.0005074734 0.00041296837 4.369478e-06 0.00035544374
6.9157904e-06 5.3141863e-05 1.6184447e-05 1.1718313e-05 0.00012428821 1.8757303e-06 1.0494311e-05 1.1792477e-05
1.2358054e-05 8.6704975e-05 9.424984e-05 6.6294674e-06 0.00010240324 2.7137661e-05 0.00014376765 8.42344e-10
7.4029415e-08 1.6097376e-05 0.0001504941 0.00012082587 0.00019197383 0.00022720567 4.1861395e-07 3.5461335e-06
1.951971e-09 0.00013348105 0.00024544806 0.00016570081 0.00037441112 0.0006735486 0.0007122355 0.00054479856
2.974115e-06 0.00051391235 8.974949e-06 5.9616734e-05 1.6891494e-05 1.25487495e-05 0.00016158621 1.2418882e-06
1.0419691e-05 1.32744535e-05 1.2277791e-05 0.00011446816 0.0001503738 5.6898375e-06 0.00016073558 2.7288635e-05
0.00022074282 1.633782e-09 1.2771963e-07 1.8001352e-05 0.00019926151 0.00016904672 0.00027512712 0.0002960779
6.950183e-07 2.3274522e-06 1.6620658e-09 0.00020885604 0.0003390782 0.00025452982

exp_avg f4 [3]
00000000: 4eb0 45bc 8a84 80ba b5c5 0bbc
-0.01206596 -0.0009805125 -0.008531024

exp_avg_sq f4 [3]
00000000: 2fa7 963a 7511 483a 1eb6 813a
0.0011493916 0.0007631996 0.0009896194
